…
2023-12-02 09:23:30,402 - speechbrain.utils.parameter_transfer - INFO - Redirecting (loading from local path): results/LibriSpeech/brq_hyperbranch/2000/save/weighted_ssl_model.ckpt -> results/LibriSpeech/brq_hyperbranch/2000/save/weighted_ssl_model.ckpt
2023-12-02 09:23:30,402 - speechbrain.utils.parameter_transfer - INFO - Redirecting (loading from local path): results/LibriSpeech/brq_hyperbranch/2000/save/normalize.ckpt -> results/LibriSpeech/brq_hyperbranch/2000/save/normalize.ckpt
2023-12-02 09:23:31,669 - speechbrain.utils.checkpoints - WARNING - During parameter transfer to ModuleList(
  (0): ConvolutionFrontEnd(
    (convblock_0): ConvBlock(
      (convs): Sequential(
        (conv_0): Conv2d(
          (conv): Conv2d(1, 128, kernel_size=(3, 3), stride=(2, 2))
        )
        (norm_0): LayerNorm(
          (norm): LayerNorm((40, 128), eps=1e-05, elementwise_affine=True)
        )
        (act_0): LeakyReLU(negative_slope=0.01)
        (dropout_0): Dropout(p=0.1, inplace=False)
      )
    )
    (convblock_1): ConvBlock(
      (convs): Sequential(
        (conv_0): Conv2d(
          (conv): Conv2d(128, 32, kernel_size=(3, 3), stride=(2, 2))
        )
        (norm_0): LayerNorm(
          (norm): LayerNorm((20, 32), eps=1e-05, elementwise_affine=True)
        )
        (act_0): LeakyReLU(negative_slope=0.01)
        (dropout_0): Dropout(p=0.1, inplace=False)
      )
    )
  )
  (1): WeightedEncoderWrapper(
    (transformer): TransformerASR(
      (positional_encoding): PositionalEncoding()
      (encoder): BranchformerEncoder(
        (layers): ModuleList(
          (0-11): 12 x BranchformerEncoderLayer(
            (mha_layer): HyperMixing(
              (hyper): HyperNetwork(
                (w1_gen): ParallelMLPs(
                  (activation): GELU(approximate='none')
                )
                (w2_gen): ParallelMLPs(
                  (activation): GELU(approximate='none')
                )
              )
              (activation): GELU(approximate='none')
              (layer_norm): LayerNorm((512,), eps=1e-05, elementwise_affine=True)
              (positional_encoding): PositionalEncoding()
            )
            (convolution_branch): ConvolutionBranch(
              (pre_channel_proj): Linear(in_features=512, out_features=3072, bias=True)
              (post_channel_proj): Linear(in_features=1536, out_features=512, bias=True)
              (activation): GELU(approximate='none')
              (csgu): ConvolutionalSpatialGatingUnit(
                (activation): Identity()
                (norm): LayerNorm(
                  (norm): LayerNorm((1536,), eps=1e-05, elementwise_affine=True)
                )
                (conv): Conv1d(
                  (conv): Conv1d(1536, 1536, kernel_size=(31,), stride=(1,), groups=1536)
                )
                (dropout): Dropout(p=0.1, inplace=False)
              )
            )
            (merge_proj): Linear(in_features=1024, out_features=512, bias=True)
            (norm_mhsa): LayerNorm(
              (norm): LayerNorm((512,), eps=1e-05, elementwise_affine=True)
            )
            (norm_conv): LayerNorm(
              (norm): LayerNorm((512,), eps=1e-05, elementwise_affine=True)
            )
            (dropout): Dropout(p=0.1, inplace=False)
          )
        )
        (norm): LayerNorm(
          (norm): LayerNorm((512,), eps=1e-06, elementwise_affine=True)
        )
      )
      (custom_src_module): ModuleList(
        (layers): ModuleList(
          (0): Linear(
            (w): Linear(in_features=640, out_features=512, bias=True)
          )
          (1): Dropout(p=0.1, inplace=False)
        )
      )
      (custom_tgt_module): ModuleList(
        (layers): ModuleList(
          (0): NormalizedEmbedding(
            (emb): Embedding(
              (Embedding): Embedding(5000, 512)
            )
          )
        )
      )
    )
  )
  (2): RandomProjectionQuantizer()
  (3): Linear(
    (w): Linear(in_features=512, out_features=8192, bias=True)
  )
) loading from results/LibriSpeech/brq_hyperbranch/2000/save/weighted_ssl_model.ckpt, the transferred parameters did not have parameters for the key: 1.weights
2023-12-02 09:23:31,676 - speechbrain.utils.checkpoints - INFO - Would load a checkpoint here, but none found yet.
2023-12-02 09:23:31,676 - speechbrain.utils.epoch_loop - INFO - Going into epoch 1
…
