…
2023-12-01 23:29:12,868 - speechbrain.utils.parameter_transfer - INFO - Redirecting (loading from local path): results/LibriSpeech/brq_hyperconf/2000/save/weighted_ssl_model.ckpt -> results/LibriSpeech/brq_hyperconf/2000/save/weighted_ssl_model.ckpt
2023-12-01 23:29:12,868 - speechbrain.utils.parameter_transfer - INFO - Redirecting (loading from local path): results/LibriSpeech/brq_hyperconf/2000/save/normalize.ckpt -> results/LibriSpeech/brq_hyperconf/2000/save/normalize.ckpt
2023-12-01 23:29:14,842 - speechbrain.utils.checkpoints - WARNING - During parameter transfer to ModuleList(
  (0): ConvolutionFrontEnd(
    (convblock_0): ConvBlock(
      (convs): Sequential(
        (conv_0): Conv2d(
          (conv): Conv2d(1, 128, kernel_size=(3, 3), stride=(2, 2))
        )
        (norm_0): LayerNorm(
          (norm): LayerNorm((40, 128), eps=1e-05, elementwise_affine=True)
        )
        (act_0): LeakyReLU(negative_slope=0.01)
        (dropout_0): Dropout(p=0.1, inplace=False)
      )
    )
    (convblock_1): ConvBlock(
      (convs): Sequential(
        (conv_0): Conv2d(
          (conv): Conv2d(128, 32, kernel_size=(3, 3), stride=(2, 2))
        )
        (norm_0): LayerNorm(
          (norm): LayerNorm((20, 32), eps=1e-05, elementwise_affine=True)
        )
        (act_0): LeakyReLU(negative_slope=0.01)
        (dropout_0): Dropout(p=0.1, inplace=False)
      )
    )
  )
  (1): WeightedEncoderWrapper(
    (transformer): TransformerASR(
      (positional_encoding): PositionalEncoding()
      (encoder): ConformerEncoder(
        (layers): ModuleList(
          (0-11): 12 x ConformerEncoderLayer(
            (mha_layer): HyperMixing(
              (hyper): HyperNetwork(
                (w1_gen): ParallelMLPs(
                  (activation): GELU(approximate='none')
                )
                (w2_gen): ParallelMLPs(
                  (activation): GELU(approximate='none')
                )
              )
              (activation): GELU(approximate='none')
              (layer_norm): LayerNorm((512,), eps=1e-05, elementwise_affine=True)
              (positional_encoding): PositionalEncoding()
            )
            (convolution_module): ConvolutionModule(
              (layer_norm): LayerNorm((512,), eps=1e-05, elementwise_affine=True)
              (bottleneck): Sequential(
                (0): Conv1d(512, 1024, kernel_size=(1,), stride=(1,))
                (1): GLU(dim=1)
              )
              (conv): Conv1d(512, 512, kernel_size=(31,), stride=(1,), padding=(15,), groups=512)
              (after_conv): Sequential(
                (0): LayerNorm((512,), eps=1e-05, elementwise_affine=True)
                (1): Swish(
                  (sigmoid): Sigmoid()
                )
                (2): Linear(in_features=512, out_features=512, bias=True)
                (3): Dropout(p=0.1, inplace=False)
              )
            )
            (ffn_module1): Sequential(
              (0): LayerNorm((512,), eps=1e-05, elementwise_affine=True)
              (1): PositionalwiseFeedForward(
                (ffn): Sequential(
                  (0): Linear(in_features=512, out_features=2048, bias=True)
                  (1): Swish(
                    (sigmoid): Sigmoid()
                  )
                  (2): Dropout(p=0.1, inplace=False)
                  (3): Linear(in_features=2048, out_features=512, bias=True)
                )
              )
              (2): Dropout(p=0.1, inplace=False)
            )
            (ffn_module2): Sequential(
              (0): LayerNorm((512,), eps=1e-05, elementwise_affine=True)
              (1): PositionalwiseFeedForward(
                (ffn): Sequential(
                  (0): Linear(in_features=512, out_features=2048, bias=True)
                  (1): Swish(
                    (sigmoid): Sigmoid()
                  )
                  (2): Dropout(p=0.1, inplace=False)
                  (3): Linear(in_features=2048, out_features=512, bias=True)
                )
              )
              (2): Dropout(p=0.1, inplace=False)
            )
            (norm1): LayerNorm(
              (norm): LayerNorm((512,), eps=1e-05, elementwise_affine=True)
            )
            (norm2): LayerNorm(
              (norm): LayerNorm((512,), eps=1e-05, elementwise_affine=True)
            )
            (drop): Dropout(p=0.1, inplace=False)
          )
        )
        (norm): LayerNorm(
          (norm): LayerNorm((512,), eps=1e-06, elementwise_affine=True)
        )
      )
      (custom_src_module): ModuleList(
        (layers): ModuleList(
          (0): Linear(
            (w): Linear(in_features=640, out_features=512, bias=True)
          )
          (1): Dropout(p=0.1, inplace=False)
        )
      )
      (custom_tgt_module): ModuleList(
        (layers): ModuleList(
          (0): NormalizedEmbedding(
            (emb): Embedding(
              (Embedding): Embedding(5000, 512)
            )
          )
        )
      )
    )
  )
  (2): RandomProjectionQuantizer()
  (3): Linear(
    (w): Linear(in_features=512, out_features=8192, bias=True)
  )
) loading from results/LibriSpeech/brq_hyperconf/2000/save/weighted_ssl_model.ckpt, the transferred parameters did not have parameters for the key: 1.weights
2023-12-01 23:29:14,853 - speechbrain.utils.checkpoints - INFO - Would load a checkpoint here, but none found yet.
2023-12-01 23:29:14,855 - speechbrain.utils.epoch_loop - INFO - Going into epoch 1
…
